…
             nn.ConvTranspose2d(128, 64, 4, stride=2, padding=1, bias=False),\n","                              nn.BatchNorm2d(64),\n","                              nn.ReLU(True),\n","                              nn.ConvTranspose2d(64, 3, 4, stride=2, padding=1, bias=False),\n","                              nn.Tanh())\n","    \n","  def forward(self, input):\n","    output = self.main(input)\n","    return output\n","  \n","netG = G()\n","netG.apply(weight_init)"],"execution_count":null,"outputs":[{"output_type":"execute_result","data":{"text/plain":["G(\n","  (main): Sequential(\n","    (0): ConvTranspose2d(100, 512, kernel_size=(4, 4), stride=(1, 1), bias=False)\n","    (1): BatchNorm2d(512, eps=1e-05, momentum=0.1, affine=True, track_running_stats=True)\n","    (2): ReLU(inplace=True)\n","    (3): ConvTranspose2d(512, 256, kernel_size=(4, 4), stride=(2, 2), padding=(1, 1), bias=False)\n","    (4): BatchNorm2d(256, eps=1e-05, momentum=0.1, affine=True, track_running_stats=True)\n","    (5): ReLU(inplace=True)\n","    (6): ConvTranspose2d(256, 128, kernel_size=(4, 4), stride=(2, 2), padding=(1, 1), bias=False)\n","    (7): BatchNorm2d(128, eps=1e-05, momentum=0.1, affine=True, track_running_stats=True)\n","    (8): ReLU(inplace=True)\n","    (9): ConvTranspose2d(128, 64, kernel_size=(4, 4), stride=(2, 2), padding=(1, 1), bias=False)\n","    (10): BatchNorm2d(64, eps=1e-05, momentum=0.1, affine=True, track_running_stats=True)\n","    (11): ReLU(inplace=True)\n","    (12): ConvTranspose2d(64, 3, kernel_size=(4, 4), stride=(2, 2), padding=(1, 1), bias=False)\n","    (13): Tanh()\n","  )\n",")"]},"metadata":{"tags":[]},"execution_count":11}]},{"cell_type":"code","metadata":{"id":"5YxOWepnRgJa","colab":{"base_uri":"https://localhost:8080/"},"executionInfo":{"status":"ok","timestamp":1606886507134,"user_tz":-540,"elapsed":590,"user":{"displayName":"임창민","photoUrl":"","userId":"01760191
…
 bias=False),\n","        nn.BatchNorm2d(256),\n","        nn.LeakyReLU(negative_slope=0.2, inplace=True),\n","        nn.Conv2d(256, 512, 4, stride=2, padding=1, bias=False),\n","        nn.BatchNorm2d(512),\n","        nn.Conv2d(512, 1, 4, stride=1, padding=0, bias=False),\n","        nn.Sigmoid()\n","    )\n","  \n","  \n","  def forward(self, input):\n","    output = self.main(input)\n","    return output.view(-1)\n","\n","netD = D()\n","netD.apply(weight_init)"],"execution_count":null,"outputs":[{"output_type":"execute_result","data":{"text/plain":["D(\n","  (main): Sequential(\n","    (0): Conv2d(3, 64, kernel_size=(4, 4), stride=(2, 2), padding=(1, 1), bias=False)\n","    (1): LeakyReLU(negative_slope=0.2, inplace=True)\n","    (2): Conv2d(64, 128, kernel_size=(4, 4), stride=(2, 2), padding=(1, 1), bias=False)\n","    (3): BatchNorm2d(128, eps=1e-05, momentum=0.1, affine=True, track_running_stats=True)\n","    (4): LeakyReLU(negative_slope=0.2, inplace=True)\n","    (5): Conv2d(128, 256, kernel_size=(4, 4), stride=(2, 2), padding=(1, 1), bias=False)\n","    (6): BatchNorm2d(256, eps=1e-05, momentum=0.1, affine=True, track_running_stats=True)\n","    (7): LeakyReLU(negative_slope=0.2, inplace=True)\n","    (8): Conv2d(256, 512, kernel_size=(4, 4), stride=(2, 2), padding=(1, 1), bias=False)\n","    (9): BatchNorm2d(512, eps=1e-05, momentum=0.1, affine=True, track_running_stats=True)\n","    (10): Conv2d(512, 1, kernel_size=(4, 4), stride=(1, 1), bias=False)\n","    (11): Sigmoid()\n","  )\n",")"]},"metadata":{"tags":[]},"execution_count":12}]},{"cell_type":"code","metadata":{"id":"GABvRWWLTSuw"},"source":["class Generator(nn.Module):\n","    def __init__(self, nz=128, channels=3):\n","        super(Generator, self).__init__()\n","        \n","        self.nz = nz\n","        self.channels = chann
…
